…
4774101,"user_tz":0,"elapsed":194,"user":{"displayName":"Thomas Clarke","photoUrl":"https://lh3.googleusercontent.com/a/default-user=s64","userId":"16859766705372105422"}},"outputId":"07fc6ed5-df89-4a1c-9717-38ae0afeaeda"},"source":["model.summary()"],"execution_count":27,"outputs":[{"output_type":"stream","name":"stdout","text":["Model: \"sequential_5\"\n","_________________________________________________________________\n","Layer (type)                 Output Shape              Param #   \n","=================================================================\n","rescaling_5 (Rescaling)      (None, 512, 512, 3)       0         \n","_________________________________________________________________\n","conv2d_20 (Conv2D)           (None, 512, 512, 15)      1140      \n","_________________________________________________________________\n","average_pooling2d_19 (Averag (None, 256, 256, 15)      0         \n","_________________________________________________________________\n","dropout_21 (Dropout)         (None, 256, 256, 15)      0         \n","_________________________________________________________________\n","conv2d_21 (Conv2D)           (None, 256, 256, 12)      1632      \n","_________________________________________________________________\n","average_pooling2d_20 (Averag (None, 128, 128, 12)      0         \n","_________________________________________________________________\n","conv2d_22 (Conv2D)           (None, 128, 128, 15)      1635      \n","_________________________________________________________________\n","average_pooling2d_21 (Averag (None, 64, 64, 15)        0         \n","_________________________________________________________________\n","dropout_22 (Dropout)         (None, 64, 64, 15)        0         \n","_________________________________________________________________\n","conv2d_23 (Conv2D)           (None, 64, 64, 12)        1632      \n","_________________________________________________________________\n","average_pooling2d_22 (Averag (None, 32, 32, 12)        0         \n","_________________________________________________________________\n","flatten_5 (Flatten)          (None, 12288)             0         \n","_________________________________________________________________\n","dropout_23 (Dropout)         (None, 12288)             0         \n","_________________________________________________________________\n","dense_16 (Dense)             (None, 256)               3145984   \n","_________________________________________________________________\n","dropout_24 (Dropout)         (None, 256)               0         \n","_________________________________________________________________\n","dense_17 (Dense)             (None, 128)               32896     \n","_________________________________________________________________\n","dense_18 (Dense)             (None, 6)                 774       \n","=================================================================\n","Total params: 3,185,693\n","Trainable params: 3,185,693\n","Non-trainable params: 0\n","_________________________________________________________________\n"]}]},{"cell_type":"code","metadata":{"colab":{"base_uri":"https://localhost:8080/"},"id":"RKszKR1Ib76A","executionInfo":{"status":"ok","timestamp":1635844829105,"
…
635885594998,"user_tz":0,"elapsed":4,"user":{"displayName":"Thomas Clarke","photoUrl":"https://lh3.googleusercontent.com/a/default-user=s64","userId":"16859766705372105422"}},"outputId":"c36aa7c0-cec5-4ac8-ca30-57982977bf7d"},"source":["model.summary()"],"execution_count":9,"outputs":[{"output_type":"stream","name":"stdout","text":["Model: \"sequential\"\n","_________________________________________________________________\n","Layer (type)                 Output Shape              Param #   \n","=================================================================\n","rescaling (Rescaling)        (None, 512, 512, 3)       0         \n","_________________________________________________________________\n","conv2d (Conv2D)              (None, 512, 512, 15)      1140      \n","_________________________________________________________________\n","max_pooling2d (MaxPooling2D) (None, 256, 256, 15)      0         \n","_________________________________________________________________\n","dropout (Dropout)            (None, 256, 256, 15)      0         \n","_________________________________________________________________\n","conv2d_1 (Conv2D)            (None, 256, 256, 12)      1632      \n","_________________________________________________________________\n","max_pooling2d_1 (MaxPooling2 (None, 128, 128, 12)      0         \n","_________________________________________________________________\n","conv2d_2 (Conv2D)            (None, 128, 128, 15)      1635      \n","_________________________________________________________________\n","max_pooling2d_2 (MaxPooling2 (None, 64, 64, 15)        0         \n","_________________________________________________________________\n","dropout_1 (Dropout)          (None, 64, 64, 15)        0         \n","_________________________________________________________________\n","conv2d_3 (Conv2D)            (None, 64, 64, 12)        1632      \n","_________________________________________________________________\n","max_pooling2d_3 (MaxPooling2 (None, 32, 32, 12)        0         \n","_________________________________________________________________\n","flatten (Flatten)            (None, 12288)             0         \n","_________________________________________________________________\n","dropout_2 (Dropout)          (None, 12288)             0         \n","_________________________________________________________________\n","dense (Dense)                (None, 1024)              12583936  \n","_________________________________________________________________\n","dropout_3 (Dropout)          (None, 1024)              0         \n","_________________________________________________________________\n","dense_1 (Dense)              (None, 256)               262400    \n","_________________________________________________________________\n","dropout_4 (Dropout)          (None, 256)               0         \n","_________________________________________________________________\n","dense_2 (Dense)              (None, 128)               32896     \n","_________________________________________________________________\n","dense_3 (Dense)              (None, 6)                 774       \n","=================================================================\n","Total params: 12,886,045\n","Trainable params: 12,886,045\n","Non-trainable params: 0\n","_________________________________________________________________\n"]}]},{"cell_type":"code","metadata":{"colab":{"base_uri":"https://localhost:8080/"},"id":"ZQtWOgBFdh83","executionInfo":{"status":"ok","timestamp":1635885694177
…
